…
  - Mean/Std distance: 4826.76/2812.58
Creating train dataloader...
  - Batch size: 1024
  - No. of batches: 391
  - Number of workers: 16
  - Pin memory: True
Creating val dataloader...
  - Batch size: 1024
  - No. of batches: 977
  - Number of workers: 16
  - Pin memory: True
Creating test dataloader...
  - Batch size: 1048576
  - No. of batches: 1
  - Number of workers: 16
  - Pin memory: True
[92mSaving plot: ../results/v39-real_workload_perturb_500k/plots/histogram_distances_W_Jinan_real_workload_perturb_500k.png[0m
Model Summary:
OptimizedModule(
  (_orig_mod): Ndist2vec(
    (embedding): Embedding(8908, 64)
    (fc1_branch1): Linear(in_features=128, out_features=100, bias=True)
    (fc2_branch1): Linear(in_features=100, out_features=20, bias=True)
    (out_branch1): Linear(in_features=20, out_features=1, bias=True)
    (fc1_branch2): Linear(in_features=128, out_features=100, bias=True)
    (fc2_branch2): Linear(in_features=100, out_features=20, bias=True)
    (out_branch2): Linear(in_features=20, out_features=1, bias=True)
    (fc1_branch3): Linear(in_features=128, out_features=100, bias=True)
    (fc2_branch3): Linear(in_features=100, out_features=20, bias=True)
    (out_branch3): Linear(in_features=20, out_features=1, bias=True)
    (fc1_branch4): Linear(in_features=128, out_features=100, bias=True)
    (fc2_branch4): Linear(in_features=100, out_features=20, bias=True)
    (out_branch4): Linear(in_features=20, out_features=1, bias=True)
    (sigmoid): Sigmoid()
  )
)
Model parameters size: 629880
Loss function: MSELoss()
Optimizer: Adam (
Parameter Group 0
    amsgrad: False
    betas: (0.9, 0.999)
    capturable: False
    differentiable: False
    eps: 1e-08
    foreach: None
    fused: None
    lr: 0.01
    maximize: False
    weight_decay: 0
)
Using Device: cuda
Starting training...
Epoch:  1/12000, Batch:   78 (1024 samples), Train Loss:   5698561.00
…
